# Các thông số cơ bản cho bài toán lá sắn
nc: 1  
names: ['unhealthy']

scales: 
  s: [0.33, 0.50, 1024] 

backbone:
  - [-1, 1, Conv, [64, 3, 2]]      # 0
  - [-1, 1, Conv, [128, 3, 2]]     # 1
  - [-1, 3, C2f, [128, True]]      # 2
  - [-1, 1, Conv, [256, 3, 2]]     # 3
  - [-1, 6, C2f_DualSK, [256, True]] # 4
  - [-1, 1, Conv, [512, 3, 2]]     # 5
  - [-1, 6, C2f_DualSK, [512, True]] # 6
  - [-1, 1, Conv, [1024, 3, 2]]    # 7
  - [-1, 3, C2f_DualSK, [1024, True]] # 8
  - [-1, 1, SPPF, [1024, 5]]       # 9

head:
  - [-1, 1, nn.Upsample, [None, 2, "nearest"]] # 10
  - [[-1, 6], 1, Concat, [1]]  # 11
  - [-1, 3, C2f_DualSK, [512]]  # 12

  - [-1, 1, nn.Upsample, [None, 2, "nearest"]] # 13
  - [[-1, 4], 1, Concat, [1]]  # 14
  - [-1, 3, C2f_DualSK, [256]]  # 15 (Đầu ra cho vật thể NHỎ)

  - [-1, 1, Conv, [256, 3, 2]]  # 16
  - [[-1, 12], 1, Concat, [1]] # 17
  - [-1, 3, C2f, [512]]         # 18 (Đầu ra cho vật thể VỪA)

  - [-1, 1, Conv, [512, 3, 2]]  # 19
  - [[-1, 9], 1, Concat, [1]]  # 20
  - [-1, 3, C2f, [1024]]        # 21 (Đầu ra cho vật thể LỚN)

  - [[15, 18, 21], 1, Detect, [nc]] # 22: Đã sửa từ 24 về 21
